cache/embeddings/b82edc5463229c4443e730204f41e513.npy (npy, 4224 bytes, 1 tensors)

array f4 [1024]
000000 69 8e 6c 3c 9d 2a c3 bb aa a4 b5 3b 13 b4 0f bd
       0.01443825 -0.0059560076 0.005543311 -0.03508384
000010 d3 8c bf b9 9a 65 9b bc 1e 89 d4 3c 04 3e ef bc
       -0.0003653528 -0.018969346 0.025944289 -0.029204376
000020 b2 7c ba bb d0 51 4f 3d e6 20 02 3d 49 82 b6 3c
       -0.0056911344 0.05061513 0.031769656 0.022278922
000030 6e 7a 95 bb a0 2a 36 3c 94 c1 36 bc 9c 55 8d 3d
       -0.004561714 0.011118561 -0.011154551 0.06901094
000040 90 f8 d3 bc f2 63 97 ba 3c 03 40 bc af 2f a1 ba
       -0.02587536 -0.0011550172 -0.011719521 -0.0012297536
000050 30 ae c0 bc c3 64 89 bc d2 1e 35 bd 56 f7 85 bc
       -0.02352056 -0.01677168 -0.044218846 -0.01635329
000060 19 c8 8a bc 02 ff d3 3b e0 4f 6d ba 14 dc b5 3c
       -0.016941117 0.0064696083 -0.0009052735 0.022199668
000070 55 aa 46 3d 2e e3 2d 3d 36 97 6a bd c3 f1 00 bb
       0.048502285 0.042452984 -0.057273112 -0.0019675351
000080 c9 b0 dd bb e3 71 60 3b f5 29 05 bd a0 2b 08 3d
       -0.006765459 0.003424757 -0.032510716 0.03324473
000090 1e 9c ee bb 2e bd 8f bd 1f ed c0 bc ba 5d 59 bc
       -0.007281794 -0.07018505 -0.023550568 -0.013266975
0000a0 cb ce 74 bc c6 64 87 3c 91 33 59 3d fc 6c 2c bd
       -0.014941881 0.016527545 0.053027693 -0.042096123
0000b0 74 bd 48 bd ab 16 33 3c 5e 79 0a bd 66 d1 b9 bc
       -0.0490088 0.010930697 -0.03380715 -0.022682857
0000c0 6a a7 88 bb 1b 03 2b bd ec 80 af 3c 2f b4 dc 3c
       -0.004170348 -0.04175101 0.02142378 0.026941387
0000d0 f8 6e 7d 3c dd 10 b3 bc 1a ed ce bc c0 d7 99 bc
       0.015468352 -0.021858627 -0.025259543 -0.018779635
0000e0 57 dc 30 bc d3 3d 25 bc 55 25 86 3b b8 a5 26 3c
       -0.010794721 -0.010085541 0.004093806 0.010171346
0000f0 57 10 b1 3c 6f 22 6b 3b dd 5c 36 3d 6d d1 85 3c
       0.021614237 0.0035878678 0.044522155 0.016335214
000100 bd fd 28 bc 3c 1c 7b 3c da 6d 9f bc 2e 0d 39 3c
       -0.010314402 0.015326556 -0.019461561 0.011294646
000110 13 f9 86 3c ac af 82 bc 39 21 15 bc 86 92 08 bd
       0.01647619 -0.015952908 -0.009102159 -0.03334286
000120 10 bf 8d bc 70 7a e1 bc 5a d2 9a bb bb 56 1d bd
       -0.01730302 -0.027524203 -0.004724783 -0.03841279
000130 ce 9b 36 bd a6 a3 f6 bc f4 9a 69 3c db d2 c9 3c
       -0.04458218 -0.03010733 0.014258135 0.024636677
000140 7b f5 ec 3c 59 23 00 3c 4f d6 24 3d 02 e2 6e bd
       0.028925648 0.007820928 0.040243443 -0.058321007
000150 0f be 50 bd bc 2b fa 3c 74 6d 00 bc c6 fe dc 38
       -0.050962504 0.030538432 -0.007838596 0.00010537873
000160 fe 56 9a 3d 7b 88 8b bd 7d da 60 3c e5 ad 35 3d
       0.07536124 -0.06813141 0.013723967 0.044355292
000170 29 32 b1 3c 7a ea 11 3c 00 7c 3a 3d 44 98 af 3c
       0.021630364 0.008906001 0.045528412 0.02143491
000180 e7 f2 12 bb 30 61 d6 3c 7c 7d c7 3c 40 1b c7 3c
       -0.0022422613 0.02616939 0.024351828 0.024304986
000190 0a 75 58 3b 7a c4 50 3d 32 a4 0e 3d 00 08 28 3d
       0.0033028745 0.050968625 0.034824558 0.041023254
0001a0 c2 ba f3 bc 76 f1 31 3d 22 71 d5 bc 6f 3f 1f bc
       -0.029752139 0.043443166 -0.026054922 -0.009719714
0001b0 e7 f1 34 bc 4f 5f 3d bd a1 2f d2 ba 8d 7e 6c bd
       -0.011044002 -0.04623347 -0.0016035923 -0.057737876
0001c0 ed 20 bf 3c bb ac 94 bd a7 59 22 3b 02 1f b8 3c
       0.02333113 -0.07259508 0.0024772675 0.022475723
0001d0 8c 5c c1 ba eb e9 0b 3c 6c 43 f3 bc 36 76 98 3c
       -0.0014752313 0.008539657 -0.029695235 0.018611055
0001e0 62 ef 9a 3c 85 5f 11 3c 50 27 7c bb 0b d2 85 bd
       0.018912975 0.008872871 -0.003847558 -0.06534203
0001f0 b2 1c d1 bc a5 31 d9 bc 0d ba 12 bd 9d 29 22 3d
       -0.025526378 -0.02651293 -0.035821963 0.039590467
000200 80 75 c0 bc 5d e6 97 3c cf 21 fb bc 56 16 50 bd
       -0.023493528 0.018542463 -0.03065577 -0.05080255
000210 2a a2 27 bd 98 5b 27 3d e6 57 8a bc 3e 59 82 39
       -0.040926136 0.040858835 -0.016887616 0.00024862023
000220 85 73 0c 3c 41 07 60 3d a0 0a 57 3c 1a f0 36 bc
       0.008572464 0.054694418 0.013125092 -0.011165643
000230 c5 f4 37 3d 9f 93 c7 39 5f 1e 1d 3d 40 99 88 3d
       0.044911165 0.00038066224 0.038359042 0.06669855
000240 1f 31 d0 3b f1 c3 f9 3c 5f 9e dd 3b da 80 92 bb
       0.006353512 0.03048894 0.006763264 -0.0044709267
000250 f6 ad 35 bd 72 7d 9a ba 65 3c 2f 3c fa 33 9c 3c
       -0.044355355 -0.0011786653 0.0106955515 0.019067753
000260 95 94 c6 3c 15 21 13 3d ae aa 88 bc ea aa 08 3c
       0.024240771 0.03592022 -0.016682949 0.00834153
000270 f2 7a e6 3c d6 37 24 3c 5b 0d 3d 3c 4e 2a 02 3c
       0.028134797 0.010023078 0.011538829 0.007944657
000280 34 6e c3 bc 00 2e 38 3d 0f 08 71 3c a0 3f 00 3c
       -0.02385626 0.044965744 0.014711394 0.007827669
000290 0c 27 f0 3c 63 01 57 3c bc d8 93 3c e3 e3 e0 ba
       0.029315494 0.013122889 0.018047683 -0.0017157759
0002a0 5a 52 81 bc 37 46 a9 bd 62 0a 8b bb 02 5b c0 bc
       -0.015786339 -0.082653455 -0.004243181 -0.023480896
0002b0 5f 09 c6 bc a3 82 34 bd df 94 06 3d 3f eb fa bb
       -0.02417439 -0.044069897 0.03285682 -0.007657438
0002c0 10 3d 21 3d 03 54 7e 3c 13 5f 2a 3d 40 ca 05 bd
       0.039364874 0.01552296 0.041594576 -0.032663584
0002d0 fe 68 56 bc 6d a1 1f bc ac 49 b6 3c 23 08 c9 3c
       -0.0130865555 -0.009743077 0.022251926 0.024540013
0002e0 01 15 9a 3c e5 98 e8 3b ed cc 11 bb 3b c2 d0 bb
       0.018808844 0.0070983046 -0.002224739 -0.0063708103
0002f0 3b 73 b7 3a de 97 1f bd 60 59 59 3d 53 bb 1d bc
       0.0013996133 -0.03896319 0.05306375 -0.009627181
000300 5a 2c 58 bc aa c8 4b 3d 5c e8 4e 3c b7 96 b0 bc
       -0.013194168 0.049751915 0.012628641 -0.021556241
000310 7a a4 5d bd 9b 4c ed 3c 56 d7 24 3c 09 d7 08 bd
       -0.054111935 0.028967192 0.010061106 -0.0334082
000320 dd 81 f4 ba a1 ac 95 bb 6a be 0a bc 45 9f 13 3c
       -0.0018654425 -0.004567698 -0.00846825 0.009010141
000330 2f db e0 3c be 58 e9 3b 16 d5 ce 3c de 43 05 3d
       0.027448265 0.0071211746 0.025248092 0.032535426
000340 fb d2 88 bd fb 56 b2 bb d6 f5 06 3d 8d a5 b4 bc
       -0.06680866 -0.005442498 0.03294929 -0.022051597
000350 50 53 a8 bb d7 3e 43 bb bf c3 29 3d a3 67 05 3d
       -0.0051368847 -0.0029792094 0.041446444 0.03256954
000360 86 cc be bc 81 af ef 3c ea 32 ce bc fb 5a 08 bc
       -0.023290884 0.029258491 -0.025170762 -0.008322473
000370 cd fb 88 ba 19 b4 d6 3c b9 74 be 3c 75 66 44 3c
       -0.0010451019 0.026208924 0.023249017 0.011987318
000380 cb 4a 08 bc a4 a5 8d 3b cc 1a f7 3b 41 7b 5c 3d
       -0.008318613 0.0043227244 0.0075410362 0.05382848
000390 8a e5 80 3c 78 fc fb 3c b0 ac 89 bb 05 2b 35 3c
       0.015734453 0.030760035 -0.004201494 0.01105762
0003a0 e2 70 57 3c 93 08 07 3d d6 c0 d9 ba 19 8b 40 bc
       0.013149472 0.03296716 -0.0016613256 -0.011751913
0003b0 c7 ca 97 3d 0b 6b c9 3c 18 72 b7 3c 43 de 5d 3d
       0.074117236 0.024587175 0.022393271 0.054167043
0003c0 30 60 bc bc 8f 8d b3 3b 78 1f cc 3c 2a 81 10 3c
       -0.022995085 0.0054795216 0.02491735 0.008819858
0003d0 cb dd 17 bc bb 87 38 3b ce b3 ca bc 34 90 9a 3c
       -0.009269188 0.0028157074 -0.02474394 0.01886759
0003e0 dd 7a ac bc 69 8d f3 bb c0 36 a7 bb 2c 30 1c 3d
       -0.02105468 -0.007432629 -0.0051029623 0.038131878
0003f0 fa 0a e3 bc 93 75 7c 3d a8 1d 29 bd aa 48 dc 3c
       -0.027715195 0.061635565 -0.041288048 0.026890118
